mario_game/TRAINED_MODEL/model.pt (torch, 9619 bytes, 4 tensors)

linear1.weight f4 [256, 4]
-0.19307822 -0.0065922737 0.2052137 0.050057717 -0.021171391 0.026404858 0.18464571 -0.20739388
-0.16012424 0.028160572 -0.42462176 -0.26769054 -0.19794631 0.19935305 0.50856906 -0.26806366
-0.2563765 0.29351294 -0.4156145 -0.4083025 0.05949508 -0.45406944 -0.44108868 -0.37355572
-0.021015096 0.43987033 0.39164412 -0.16948006 0.17782359 0.061762843 -0.09763482 -0.39089188
-0.2830275 0.38259134 0.2496968 0.30290708 -0.024747131 0.17754547 -0.105328865 -0.49962932
-0.022478282 0.4062806 -0.26135558 0.41679046 -0.16048697 -0.4117675 0.16619667 -0.0933564
-0.37702054 0.22967309 0.41162965 0.33990082 -0.061602052 -0.21696149 0.42131877 0.21782294
0.3057882 0.45032796 -0.3740628 -0.17865507 -0.25944152 0.39391905 0.19121589 0.35920978
-0.03608783 -0.17279595 -0.28667307 0.44413158 0.23873256 -0.4247415 0.18471834 0.3687399
-0.49858516 0.10107809 0.250362 -0.29519197 0.27424395 0.07795379 0.23207623 -0.47933203
-0.028062351 -0.4862241 0.008851035 0.29471597 -0.2034585 -0.15271051 0.18838865 0.29856658
-0.2870808 0.24065354 0.21493848 0.241305 -0.36966288 -0.23939739 0.29836863 -0.4601947
-0.18921329 -0.34709907 0.18358943 0.20349102 0.0978058 -0.34795338 -0.2692865 -0.040679276
0.109871574 0.36140183 -0.21968153 0.24833769 -0.2509213 -0.19507974 -0.43054456 -0.39300174
0.36639738 0.4060952 -0.0066684205 0.040799335 -0.4171413 0.48498455 0.40480703 0.06588128
0.44260406 0.33896655 -0.44429797 -0.14990503 -0.21406479 0.2478942 -0.2313324 0.3891337
0.42118308 -0.44500214 -0.29014534 0.020060742 0.069016345 -0.12231623 -0.25267202 -0.15457134
0.22410744 0.42660815 -0.337165 -0.04071635 -0.058570497 -0.01919293 -0.17935623 0.14658101
0.32835087 0.3756198 0.43689433 -0.30719241 0.22795987 -0.3544426 0.38641524 0.33580902
0.0867452 0.117582366 -0.37840894 0.027953004 -0.0853678 0.16733265 -0.24371701 -0.32043874
-0.08269 -0.3121434 0.1542874 -0.06482303 0.26405197 0.30870974 -0.438586 0.04349693
-0.1776682 -0.3955942 0.5998992 -0.20018445 0.06321306 0.434619 -0.2552103 -0.26223814
-0.17308396 -0.48213392 -0.19270778 0.054166317 -0.330599 -0.25493908 -0.027624965 0.03853023
0.20662327 -0.12598334 0.2557689 0.12797248 0.36686432 0.3934109 0.44064465 -0.44440264
-0.30437112 -0.08681893 -0.4961267 -0.1001335 -0.5129043 -0.30181783 0.3016562 0.27833018
0.23007745 0.33775336 0.33631343 0.3976078 0.020481009 0.25734428 -0.26113737 -0.427755
-0.44106495 0.042180423 0.42038694 0.14592303 -0.36682245 0.06851556 -0.3774899 0.036450002
-0.040016074 0.34482747 -0.30943823 0.522238 -0.48842806 0.15682253 0.03626642 0.016586883
-0.07133259 -0.42213404 0.5281436 -0.36372304 0.10439937 -0.21381265 0.55631715 -0.12516782
0.2560269 0.007781488 0.3694486 -0.10622435 -0.2287386 -0.42982456 0.44940516 0.11526765
-0.2605574 0.3393619 -0.4987297 0.25921932 0.41004163 -0.13783073 -0.44270852 0.33927336
0.29027826 -0.118806005 -0.3613631 -0.35569942 -0.2488144 0.029915333 0.06983584 -0.12860644
00000000: 4cb6 45be 0004 d8bb 8a23 523e 5209 4d3d
00000010: a06f adbc 004f d83c c413 3d3e 105f 54be
00000020: 9cf7 23be 00b1 e63c 0668 d9be bc0e 89be
00000030: 70b2 4abe 3523 4c3e 9531 023f a43f 89be
00000040: c843 83be 5447 963e 6ccb d4be 060d d1be
00000050: 1db1 733d ca7b e8be 60d6 e1be b242 bfbe
00000060: da27 acbc af36 e13e 9485 c83e 2e8c 2dbe
00000070: 6317 363e 09fb 7c3d c4f4 c7bd fb22 c8be
00000080: fbe8 90be 03e3 c33e 85b0 7f3e a316 9b3e
00000090: 7fba cabc 7bce 353e a9b6 d7bd 6acf ffbe
000000a0: 6024 b8bc 0304 d03e 66d0 85be 8f65 d53e
000000b0: b256 24be 31d3 d2be 762f 2a3e a431 bfbd
000000c0: d608 c1be 6c2f 6b3e 1fc1 d23e 7b07 ae3e
000000d0: 6f52 7cbd 272b 5ebe 18b7 d73e fa0c 5f3e
000000e0: 4590 9c3e 6391 e63e 2985 bfbe 5bf1 36be
000000f0: 85d5 84be c2af c93e 19ce 433e 58ea b73e
00000100: d5d0 13bd 6cf1 30be d0c6 92be 3765 e33e
00000110: 4f76 743e b877 d9be ce26 3d3e 7acb bc3e
00000120: 8e46 ffbe 0802 cf3d 732f 803e 6723 97be
00000130: b469 8c3e 3da6 9f3d 64a5 6d3e 026b f5be
00000140: 04e3 e5bc 5ef2 f8be ee03 113c 03e5 963e
00000150: 6d57 50be 2560 1cbe f4e8 403e b8dd 983e
00000160: 41fc 92be e26d 763e d518 5c3e a818 773e
00000170: 7444 bdbe 9724 75be c6c3 983e a49e ebbe
00000180: 21c1 41be f8b6 b1be defe 3b3e f35f 503e
00000190: 684e c83d f226 b2be ecdf 89be 509f 26bd
000001a0: 5904 e13d a909 b93e 32f4 60be 3c4c 7e3e
000001b0: c278 80be fcc2 47be 5670 dcbe 8637 c9be
000001c0: 7098 bb3e b6eb cf3e c482 dabb 341d 273d
000001d0: 8b93 d5be e54f f83e de42 cf3e c4ec 863d
000001e0: 009d e23e 068d ad3e 067b e3be b480 19be
000001f0: cd33 5bbe fad7 7d3e 67e2 6cbe 883c c73e
00000200: 4fa5 d73e 52d7 e3be ee8d 94be 6d56 a43c
00000210: 7158 8d3d ee80 fabd 3a5e 81be f347 1ebe
00000220: 6c7c 653e 626c da3e e4a0 acbe 30c6 26bd
00000230: 9ee7 6fbd 7e3a 9dbc 29a9 37be 5519 163e
00000240: 9b1d a83e 3d51 c03e 9db0 df3e 5348 9dbe
00000250: 506e 693e 8079 b5be 38d8 c53e 29ef ab3e
00000260: 78a7 b13d 06cf f03d d1be c1be b3fd e43c
00000270: 50d5 aebd 4059 2b3e f490 79be 8c10 a4be
00000280: 6059 a9bd 42d1 9fbe 84fd 1d3e f0c1 84bd
00000290: d231 873e 340f 9e3e 588e e0be d629 323d
000002a0: a7ee 35be 538b cabe fe92 193f 27fd 4cbe
000002b0: d975 813d 6286 de3e edaa 82be 1444 86be
000002c0: ec3c 31be 42da f6be 3055 45be 80dd 5d3d
000002d0: 4644 a9be 6087 82be c04d e2bc e0d1 1d3d
000002e0: 0d95 533e c701 01be 24f4 823e 380b 033e
000002f0: a4d5 bb3e 276d c93e 2d9c e13e be88 e3be
00000300: 88d6 9bbe 20ce b1bd 5204 febe cb12 cdbd
00000310: b24d 03bf de87 9abe ae72 9a3e 4b81 8e3e
00000320: 6c99 6b3e 02ee ac3e 4631 ac3e 4093 cb3e
00000330: cac7 a73c a1c2 833e ccb3 85be b402 dbbe
00000340: 44d3 e1be 61c5 2c3d f53c d73e d96c 153e
00000350: 27d0 bbbe e351 8c3d 5b46 c1be 994c 153d
00000360: e5e7 23bd 3a8d b03e b06e 9ebe 64b1 053f
00000370: 3e13 fabe 1696 203e 198c 143d 37e1 873c
00000380: d216 92bd f421 d8be 6b34 073f e839 babe
00000390: 56cf d53d b4f1 5abe cd6a 0e3f fe2b 00be
000003a0: f515 833e dafb fe3b 5e28 bd3e 278c d9bd
000003b0: 743a 6abe f711 dcbe 6f18 e63e 7211 ec3d
000003c0: c867 85be d8c0 ad3e 8059 ffbe 65b8 843e
000003d0: faf0 d13e 8023 0dbe b1aa e2be 3db5 ad3e
000003e0: 5a9f 943e 9050 f3bd 9604 b9be 3c1e b6be
000003f0: 34c9 7ebe 0011 f53c 1806 8f3d 68b1 03be

linear1.bias f4 [256]
-0.25791514 -0.4796754 0.41270396 -0.19916835 -0.42532212 0.09204376 -0.3945858 0.3812024
0.45393717 0.020298801 -0.40089557 0.19594237 -0.23351815 -0.34827846 0.2125565 0.32676205
-0.3682054 -0.10835747 0.3672582 -0.1653261 -0.27836627 0.049247414 0.3383033 -0.032904353
0.08097519 -0.46806204 -0.20537654 -0.36253583 -0.39394337 0.14119327 -0.47584456 -0.05177339
0.1260516 0.36654058 -0.36951697 -0.0059473915 -0.32180363 -0.4022658 0.22640783 -0.24076045
-0.35635126 -0.26891357 0.08414281 0.32272726 -0.49227005 -0.14912236 0.40402877 0.19857861
0.073055886 0.2402355 -0.36622494 0.16931608 0.08255116 0.4616595 -0.32122213 0.42149818
-0.22566973 -0.28425172 -0.043791614 -0.032916706 0.06536535 0.12652111 -0.08635294 -0.46566075
0.34975022 -0.34966838 -0.12191933 0.43358183 0.32183352 0.37706405 -0.37617993 0.13008654
-0.2259025 -0.4346145 0.3314813 0.3632519 -0.45643303 0.29846624 -0.22727042 0.42708609
-0.39211786 0.2201877 -0.3430329 -0.48504668 -0.49595654 -0.48617947 0.077491514 0.33632255
-0.037874628 -0.21966434 -0.0909096 -0.26481152 -0.125899 -0.41490483 -0.38362256 0.15668772
0.118633196 0.21569148 -0.25485122 0.43993124 0.07528962 -0.028069561 -0.0089726485 -0.4907034
0.41750363 -0.4401713 0.27820548 -0.494677 -0.110723905 0.26712435 -0.382012 0.17656262
0.22928475 0.14865974 0.19960335 -0.38441086 0.066955164 0.16583599 0.3877262 -0.4208357
0.38385144 -0.2963587 0.37405902 0.025120748 0.38916868 -0.4887933 0.09802821 -0.28089082
0.19092435 0.29047993 -0.498736 -0.23310873 -0.34874463 0.41084316 -0.2133157 -0.19258521
0.472884 -0.29229456 -0.29287854 0.20772195 -0.3387097 0.31277412 0.30227363 0.08836538
0.035962917 0.3292147 -0.05642624 0.35408443 -0.060122803 0.11256557 0.3452847 -0.22329764
-0.4278655 -0.10085384 -0.3619163 0.2813145 0.40366077 0.3312819 -0.17875886 0.033090603
0.2624681 -0.29517663 -0.16731055 0.44646332 -0.109410696 -0.4776252 0.3908979 -0.32666117
0.32474488 0.34306026 -0.13744427 -0.18841873 0.1827415 0.30844936 0.23132731 0.049025837
0.12641527 0.09645687 0.21454947 -0.1770115 -0.21567863 -0.0007281826 0.34951213 0.09310562
-0.07609056 -0.13898331 -0.51791996 0.34438863 0.24453314 -0.47307628 -0.16340804 -0.3716302
0.37424758 0.058112714 -0.22510773 -0.04198426 -0.0014115488 0.19790016 0.18744136 -0.044953786
0.26753488 0.4213821 0.19219342 0.12617789 0.416996 -0.004850274 0.18853973 -0.2158012
-0.1712974 0.2477269 0.20144974 0.07181441 0.13049898 -0.07485153 0.18968473 0.03259723
-0.4338534 0.20773731 -0.032247636 -0.43660605 -0.1742909 0.0035948092 -0.41856527 0.48837444
0.43830708 -0.49344164 0.05850561 0.33644137 -0.23957036 -0.37566543 -0.0024831276 0.31394798
0.24455085 0.17615366 -0.13073888 -0.371411 0.37240344 -0.010977471 0.24070808 0.10397157
0.17423359 -0.2630806 -0.16474569 -0.056821603 -0.04863265 -0.082340516 0.07345427 -0.0858716
-0.4354353 -0.16773254 -0.47889096 0.38189912 0.10837136 -0.22770941 0.27082056 0.40976334
00000000: 740d 84be 0498 f5be ef4d d33e caf2 4bbe
00000010: d2c3 d9be 7081 bc3d 2607 cabe f62c c33e
00000020: 746a e83e ac49 a63c 2f42 cdbe 1ea5 483e
00000030: 621f 6fbe 8e51 b2be 69a8 593e 5b4d a73e
00000040: 6b85 bcbe 85ea ddbd 4409 bc3e 3f4b 29be
00000050: 0686 8ebe a8b7 493d 1736 ad3e b7c6 06bd
00000060: 52d6 a53d d4a5 efbe 3a4e 52be 4c9e b9be
00000070: f2b2 c9be f894 103e e6a1 f3be 5610 54bd
00000080: ac13 013e 35ab bb3e 5431 bdbe 56e2 c2bb
00000090: 72c3 a4be c8f5 cdbe 74d7 673e e889 76be
000000a0: ac73 b6be 0aaf 89be 1153 ac3d 823c a53e
000000b0: d20a fcbe 88b3 18be dcdc ce3e 3158 4b3e
000000c0: 539e 953d 4b00 763e d681 bbbe 3261 2d3e
000000d0: 9510 a93d a25e ec3e 3a77 a4be 9cce d73e
000000e0: f715 67be 7189 91be d65e 33bd abd3 06bd
000000f0: 45de 853d c08e 013e cfd9 b0bd 166b eebe
00000100: 7612 b33e bc07 b3be d7b0 f9bd 70fe dd3e
00000110: 5dc7 a43e 8a0e c13e a89a c0be 6835 053e
00000120: fc52 67be cb85 debe ebb7 a93e 27fc b93e
00000130: 97b1 e9be 91d0 983e 94b9 68be 07ab da3e
00000140: acc3 c8be e278 613e 02a2 afbe 0a58 f8be
00000150: 04ee fdbe 84ec f8be dfb3 9e3d 7832 ac3e
00000160: 6d22 1bbd b0ef 60be d02e babd 6095 87be
00000170: abeb 00be 686e d4be 2d6a c4be bf72 203e
00000180: f6f5 f23d 3ade 5c3e dc7b 82be ab3e e13e
00000190: 7231 9a3d 23f2 e5bc 0402 13bc 7a3d fbbe
000001a0: 09c3 d53e 225e e1be f370 8e3e 4e46 fdbe
000001b0: 37c3 e2bd 86c4 883e 1497 c3be d5cc 343e
000001c0: 9fc9 6a3e 423a 183e d264 4c3e 80d1 c4be
000001d0: ca1f 893d e9d0 293e 0c84 c63e c777 d7be
000001e0: 2d88 c43e 54bc 97be aa84 bf3e 07ca cd3c
000001f0: 1e41 c73e 1e43 fabe 04c3 c83d ecd0 8fbe
00000200: ac81 433e c9b9 943e 535a ffbe 0eb4 6ebe
00000210: a88e b2be 095a d23e 6e6f 5abe 0f35 45be
00000220: da1d f23e a2a7 95be 2df4 95be 10b5 543e
00000230: 5c6b adbe ee23 a03e 9cc3 9a3e e9f8 b43d
00000240: da4d 133d d48e a83e 331f 67bd 8e4a b53e
00000250: 5443 76bd c788 e63d 28c9 b03e 23a8 64be
00000260: 3011 dbbe 758c cebd 184d b9be 7408 903e
00000270: a0ac ce3e c89d a93e 900c 37be 038a 073d
00000280: 3862 863e 6421 97be 7553 2bbe d796 e43e
00000290: b712 e0bd 4a8b f4be c523 c83e 2240 a7be
000002a0: f644 a63e 98a5 af3e 31be 0cbe d7f0 40be
000002b0: 9620 3b3e 13ed 9d3e 11e1 6c3e 51cf 483d
000002c0: 0173 013e 2e8b c53d dbb2 5b3e 8142 35be
000002d0: dcda 5cbe 82e3 3eba 41f3 b23e 29ae be3d
000002e0: 5ed5 9bbd a451 0ebe 6796 04bf b553 b03e
000002f0: e566 7a3e 0e37 f2be 7054 27be 5046 bebe
00000300: 619d bf3e 9907 6e3d a482 66be b0f7 2bbd
00000310: b803 b9ba 57a6 4a3e a1f0 3f3e 7621 38bd
00000320: 55fa 883e 65bf d73e 5ace 443e c734 013e
00000330: 8080 d53e 0cef 9ebb 8f10 413e fdfa 5cbe
00000340: 9668 2fbe 1fac 7d3e d748 4e3e 6f13 933d
00000350: 86a1 053e c24b 99bd b73c 423e ac84 053d
00000360: 0822 debe 17b9 543e 1916 04bd d48a dfbe
00000370: 5079 32be e496 6b3b 304e d6be 370c fa3e
00000380: c969 e03e 62a4 fcbe 94a3 6f3d 0b42 ac3e
00000390: ef51 75be 3857 c0be f8bb 22bb cabd a03e
000003a0: 8a6b 7a3e a061 343e 6ae0 05be 9529 bebe
000003b0: aaab be3e dada 33bc 2e7c 763e 0cef d43d
000003c0: 4a6a 323e 80b2 86be 18b3 28be c5bd 68bd
000003d0: 0833 47bd 25a2 a8bd 316f 963d 73dd afbd
000003e0: 60f1 debe 14c2 2bbe 3231 f5be 4888 c33e
000003f0: cef1 dd3d a82c 69be fea8 8a3e 80cc d13e

linear2.weight f4 [3, 256]
-0.012566967 0.0612752 0.05725485 -0.07632294 -0.056374997 0.08025667 0.006033055 -0.019614486
-0.048274938 -0.045462094 0.047000058 0.09343412 -0.07813022 0.04566189 0.00702409 -0.06665244
0.047461025 0.060960226 0.0263947 -0.06318116 0.02487493 0.029782347 -0.08339781 0.08674291
0.011223304 -0.047716863 -0.00547987 0.04810711 0.017844506 -0.08286842 0.028752029 -0.021501526
0.0010460537 0.0048128855 0.04220856 0.0513148 -0.00818923 0.045440566 0.109326564 0.049683854
-0.011677101 -0.010691276 0.1249499 -0.018179942 -0.041325197 0.047709763 -0.04442041 0.0076983594
0.035345618 0.023671048 0.021448765 0.0066318805 -0.032925088 0.038754746 -0.06214899 -0.06858291
0.17389542 0.071602024 -0.05011663 0.11102042 0.015471141 0.07004869 -0.017297631 -0.03328447
-0.025248324 5.3031097e-05 -5.910643e-05 5.2444055e-05 -0.07368633 -0.0384177 0.044093724 -0.043927
-0.0055551603 -0.020269148 -0.019930245 -0.017017862 0.035174135 0.03717302 -0.003221375 -0.05877624
-0.011374146 -0.04713238 -0.04649334 0.040651277 -0.014761806 0.017430298 0.070940316 0.03759527
0.041682594 0.003534474 -0.05735562 -0.028933438 0.0612872 0.033559054 0.025770102 -0.008866368
-0.048687886 0.026874002 0.0057842806 0.014286862 -0.08184604 0.009123529 0.032064464 0.0045269653
-0.06988241 0.017340712 0.116500996 0.045563675 0.11103614 -0.04560238 0.011220954 0.18691446
0.03054591 0.034980513 -0.05021291 -0.06758815 -0.021840684 0.035688534 0.05440554 -0.0047990084
-0.00652248 0.023848854 -0.009897115 0.029140268 -0.04770216 0.0052747056 0.02996622 0.0482248
-0.0049602613 0.013314763 -0.021017414 -0.02392365 0.013482258 0.2411436 0.019266333 -0.01555258
0.062211182 -0.007653706 -0.04603903 -0.006589362 -0.052320093 -0.013681899 0.00069098873 -0.018669888
-0.06868991 0.04137368 -0.06423083 0.057398196 -0.009272989 -0.0702957 -0.07023593 0.009972263
-0.059059553 0.06748853 -0.03628027 0.036610372 -0.07596808 -0.08369989 0.02767858 -0.022080736
0.018516706 -0.008094698 0.0829524 0.0059754173 0.029630836 -0.060325474 0.0005635869 -0.019618832
0.1292184 -0.01581439 0.13936311 0.026601419 0.0089418385 0.0534943 -0.070875995 -0.046401408
0.012946581 0.015545746 0.06447825 0.03337998 0.027258873 0.018490557 -0.039327927 0.07027323
-0.051459223 -0.010467774 -0.0074840705 -0.06341414 0.08783611 -0.01652328 -0.017454542 0.00642331
0.017115803 0.09495481 -0.0011272457 0.031833738 0.03691422 -0.05371329 -0.024928384 0.118551
-0.0017082881 -0.026024723 -0.02346299 0.016693816 0.002516431 -0.08284441 0.041926604 0.016299255
-0.014226626 -0.067985214 0.02664654 0.031515528 -0.018404147 -0.041415714 0.022363644 0.03658705
0.013576493 0.07038367 0.118277915 0.0031708812 -0.04460726 0.0141144395 0.03657169 -0.076933466
0.16609527 0.0034268647 0.031307437 -0.0071196924 0.07067831 -0.011191636 0.10845844 0.007805823
0.03974791 0.09975131 0.07861758 -0.03702164 -0.07881262 0.16658928 0.01816749 0.06660528
-0.054683723 0.011102758 -0.060161233 0.03795335 -0.07420539 0.025569389 -0.074153945 -0.008469668
-0.01795967 0.018069692 -0.03148272 -0.06408807 0.04767781 -0.01669886 0.040007316 0.07055658
00000000: aee5 4dbc b4fb 7a3d 1084 6a3d 344f 9cbd
00000010: 78e9 66bd 9c5d a43d efb0 c53b 8fae a0bc
00000020: f1bb 45bd 7636 3abd 2283 403d 635a bf3d
00000030: bd02 a0bd f607 3b3d 562a e63b 1381 88bd
00000040: 7e66 423d 6eb1 793d b339 d83c 2065 81bd
00000050: 82c6 cb3c 1cfa f33c 79cc aabd 44a6 b13d
00000060: f3e1 373c c272 43bd 7b90 b3bb f60b 453d
00000070: a42e 923c ebb6 a9bd 6089 eb3c f823 b0bc
00000080: bd1b 893a 69b5 9d3b e2e2 2c3d 782f 523d
00000090: 1f2c 06bc e31f 3a3d 9be6 df3d 4c81 4b3d
000000a0: 5051 3fbc 762a 2fbc bce5 ff3d 1aee 94bc
000000b0: 9c44 29bd 506b 433d 2df2 35bd 8542 fc3b
000000c0: 91c6 103d c9e9 c13c 52b5 af3c 3f50 d93b
000000d0: 75dc 06bd 4cbd 1e3d f08f 7ebd 3275 8cbd
000000e0: a411 323e 15a4 923d 1847 4dbd ad5e e33d
000000f0: ab7a 7d3c b075 8f3d c3b3 8dbc 4c55 08bd
00000100: 93d5 cebc b56d 5e38 0ce9 77b8 60f7 5b38
00000110: dce8 96bd e15b 1dbd 9f9b 343d ccec 33bd
00000120: 1008 b6bb 7c0b a6bc c144 a3bc 0b69 8bbc
00000130: c112 103d bd42 183d b41d 53bb 5bbf 70bd
00000140: a05a 3abc e20d 41bd cd6f 3ebd f481 263d
00000150: 80db 71bc fcc9 8e3c 2849 913d 7ffd 193d
00000160: 5ebb 2a3d a2a2 673b baed 6abd d105 edbc
00000170: 4908 7b3d 3875 093d d21b d33c 3e44 11bc
00000180: f36c 47bd de26 dc3c 108a bd3b 7113 6a3c
00000190: e69e a7bd db7a 153c 0756 033d f056 943b
000001a0: 821e 8fbd 1c0e 8e3c 1398 ee3d faa0 3a3d
000001b0: ea66 e33d 90c9 3abd 18d8 373c 8166 3f3e
000001c0: 6b3b fa3c ba47 0f3d 0dac 4dbd a86b 8abd
000001d0: 3ceb b2bc 242e 123d 58d8 5e3d 0041 9dbb
000001e0: 87ba d5bb ac5e c33c 8227 22bc 92b7 ee3c
000001f0: 5763 43bd 70d7 ac3b b87b f53c 5e87 453d
00000200: b089 a2bb 2a26 5a3c b62c acbc 88fb c3bc
00000210: b0e4 5c3c 59ee 763e 6ed4 9d3c 40d0 7ebc
00000220: 27d1 7e3d f0cb fabb 6c93 3cbd 93eb d7bb
00000230: 984d 56bd 0b2a 60bc 7823 353a 98f1 98bc
00000240: 4cad 8cbd 7377 293d 748b 83bd 5f1a 6b3d
00000250: bced 17bc 31f7 8fbd dbd7 8fbd b462 233c
00000260: 6ee8 71bd 6d37 8a3d 9f9a 14bd c2f4 153d
00000270: 2795 9bbd d96a abbd 30be e23c a9e2 b4bc
00000280: 59b0 973c a09f 04bc f3e2 a93d 6fcd c33b
00000290: 5ebc f23c d817 77bd adbd 133a acb7 a0bc
000002a0: d451 043e 2e8d 81bc 34b5 0e3e 38eb d93c
000002b0: ca80 123c d71c 5b3d 6f27 91bd 670f 3ebd
000002c0: e51d 543c 96b3 7e3c 2c0d 843d 72b9 083d
000002d0: 004e df3c 8279 973c 5216 21bd 69eb 8f3d
000002e0: e8c6 52bd 0781 2bbc ef3c f5bb 46df 81bd
000002f0: 6be3 b33d d45b 87bc d4fc 8ebc a17a d23b
00000300: 7136 8c3c ab77 c23d 17c0 93ba 1864 023d
00000310: 5d33 173d 7702 5cbd 9c36 ccbc deca f23d
00000320: a3e8 dfba cd31 d5bc 7535 c0bc 78c1 883c
00000330: b5ea 243b 54aa a9bd 3bbb 2b3d 0486 853c
00000340: cb16 69bc d53b 8bbd d849 da3c 6d16 013d
00000350: 4bc4 96bc 86a3 29bd f633 b73c 4ddc 153d
00000360: f06f 5e3c 5025 903d b13b f23d 8fce 4f3b
00000370: 1ab6 36bd 4040 673c 32cc 153d 4b8f 9dbd
00000380: e114 2a3e 4095 603b 3a3c 003d 4f4c e9bb
00000390: cabf 903d 205d 37bc 751f de3d fdc7 ff3b
000003a0: b4ce 223d 6a4a cc3d 4102 a13d 01a4 17bd
000003b0: 8368 a1bd 6196 2a3e fdd3 943c 5968 883d
000003c0: 0afc 5fbd 58e8 353c a06b 76bd f974 1b3d
000003d0: fff8 97bd e576 d13c 06de 97bd 5dc4 0abc
000003e0: 2820 93bc e406 943c 06f4 00bd 9b40 83bd
000003f0: cf49 433d 0ccc 88bc b6de 233d f87f 903d

linear2.bias f4 [3]
-0.070054956 -0.020201508 0.017094541
00000000: f978 8fbd a27d a5bc da09 8c3c
