mario_game/TRAINED_MODEL/model.pt (torch, 9619 bytes, 4 tensors)

linear1.weight f4 [256, 4]
000000 69 74 40 3e 92 f3 5f 3e 94 6b 61 be 58 bc 93 be
       0.18794407 0.21870258 -0.22013694 -0.28854632
000010 20 b9 b3 3d 96 90 f1 be 23 21 bc 3d b4 80 db be
       0.08775544 -0.47180623 0.09186008 -0.4287163
000020 00 8b 47 bc b0 de ac bd 40 6e f9 be e4 f2 10 3e
       -0.012179136 -0.08440912 -0.48716927 0.14155155
000030 fa 9b 1d 3d 83 f5 b5 3e 38 41 e6 3d 95 65 9a 3d
       0.03847883 0.35538873 0.11242908 0.075389065
000040 c0 b6 54 be a8 c3 0c be 78 7c 93 be 66 d2 9e 3e
       -0.20772839 -0.13746512 -0.288059 0.31019896
000050 30 d1 dc 3e 46 59 a0 3e 70 a4 8e be bf 74 87 3e
       0.43128347 0.3131811 -0.2785983 0.26456258
000060 80 75 07 3d e0 2e e7 3e bf 8f 64 3e 5a 66 9e bd
       0.03307104 0.4515295 0.2232046 -0.07734366
000070 27 59 23 be dc 8e 27 bd 3e 41 54 be 44 03 d1 be
       -0.15951978 -0.040907726 -0.20728013 -0.40822804
000080 58 a7 37 be 18 0c d6 be 38 91 e7 be 28 d5 fa be
       -0.1793493 -0.41806102 -0.4522798 -0.4899075
000090 08 2a c4 3d e8 f9 d7 3e 59 5f 6a 3e 5a a0 72 3e
       0.09578329 0.4218285 0.22887935 0.23693982
0000a0 e2 49 40 3e b2 85 e9 3e 7b a9 fb bd 3d f0 b7 bc
       0.18778184 0.45609814 -0.12288185 -0.022453422
0000b0 70 e9 0e bd 50 b8 21 bd dc 2e e3 be 00 1f ae bb
       -0.034890592 -0.039482415 -0.44371688 -0.005313754
0000c0 85 78 8c bd 9a 45 60 be 9a ab d9 bc 68 66 9e be
       -0.06858925 -0.21901551 -0.026571084 -0.30937505
0000d0 f0 e0 df be 60 dd 7f be 54 f1 a0 be 25 e6 ad 3c
       -0.437263 -0.24986792 -0.3143412 0.021227906
0000e0 b7 25 95 3e dd f0 81 bd 8d fb d3 3e d8 76 75 3c
       0.29130337 -0.06344769 0.41402856 0.014981948
0000f0 f4 85 8c be e8 78 ca bd 70 43 b4 bd c6 d6 f2 be
       -0.27445948 -0.09886342 -0.08801925 -0.47429484
000100 09 31 14 be e7 65 e9 3d 70 92 7c be 04 e8 5a 3c
       -0.1447183 0.113963895 -0.24665236 0.013360981
000110 28 87 1c be c1 76 c3 be 7a a5 77 3e ef fa 5b 3e
       -0.15285933 -0.3817654 0.24184218 0.21482442
000120 dc d6 91 be d4 9f 64 be 8c bb 7a be f0 24 92 3d
       -0.28484237 -0.22326595 -0.24485606 0.071359515
000130 08 5a 22 3e 6f d8 ce 3e df 97 84 3d de 74 06 bc
       0.15854657 0.403995 0.064742796 -0.008206574
000140 55 24 fc 3e 4d 5e ed 3d ff 4b ca bd 87 cc 02 3e
       0.4924647 0.11590252 -0.09877776 0.12773333
000150 53 a4 7f 3e e9 68 80 be 77 e5 99 be 97 42 f4 3e
       0.24965028 -0.2508004 -0.3005788 0.47707054
000160 34 2a ab bd bb 00 b5 3e 9e 7c df 3e 07 02 90 be
       -0.08357659 0.3535212 0.43649763 -0.28126547
000170 b3 a2 98 3e 9c de 54 be 0b 6a 9e 3e 1c 52 b9 3c
       0.2981163 -0.20788044 0.3094028 0.02262216
000180 9a e1 ff be 98 d8 92 be d6 33 b6 be 84 9c 97 be
       -0.49976808 -0.28680873 -0.35586423 -0.296116
000190 f0 d5 c1 3d d6 1c d4 3e d8 b6 0f be 48 cb c3 be
       0.094646335 0.4142825 -0.14034593 -0.3824103
0001a0 61 8e b5 be b9 23 ad 3e e3 ca 73 3e 12 d3 ef be
       -0.3546019 0.33816317 0.23807864 -0.4684072
0001b0 2c 52 11 be c4 93 c3 be 78 d1 a4 be c0 15 51 3e
       -0.14191502 -0.38198674 -0.32191062 0.20418453
0001c0 73 7f 7d bc ac af 0c be a9 46 a9 3e 85 83 d7 be
       -0.015472281 -0.13738889 0.33061722 -0.4209253
0001d0 e7 7d f2 be ce eb 90 3e 32 f1 8b 3d 4a 74 e4 3e
       -0.4736168 0.28304905 0.06833114 0.44619972
0001e0 70 35 90 bd e0 bc d4 be ce 0e 92 be fc d6 8c be
       -0.070414424 -0.4155035 -0.2852692 -0.2750777
0001f0 30 43 73 be e0 58 5c 3d c0 2f 37 3c 7c e4 f8 be
       -0.23756099 0.053795695 0.011180818 -0.4861182
000200 39 cf 1f 3e 51 44 7b 3d 92 b5 af 3e cf 3f bb be
       0.15606393 0.06134445 0.34318215 -0.3657212
000210 d4 9f 5b be bc fc eb be 26 fc cf be 98 7c eb be
       -0.21447688 -0.4609126 -0.40622061 -0.45993495
000220 8e b0 9d be 86 7b eb be 5c 55 ba be 8c c2 c7 be
       -0.30798763 -0.45992678 -0.3639325 -0.39015615
000230 80 61 a6 bc 88 64 bb 3e 80 1a 03 be 9a da a6 be
       -0.020310163 0.36600137 -0.12803078 -0.32588655
000240 68 9b 9c 3e a4 ed 76 be 2e ea 8a be e9 80 89 3d
       0.30587316 -0.2411409 -0.2713179 0.06714041
000250 36 89 c5 3e c9 3f 39 be e8 04 f5 3c 7c 44 e0 be
       0.38581246 -0.18090738 0.029909566 -0.4380225
000260 ed d1 4e 3e 6a 43 aa 3e f5 b4 32 3e dd c2 58 3d
       0.20197268 0.33254558 0.17451842 0.05292021
000270 cb a0 0c be 75 5c cf 3e 9b f4 9f 3e b4 c3 07 3c
       -0.13733213 0.40500227 0.31241307 0.008286405
000280 5e 07 fe be 51 74 29 bd a2 18 49 3e ab 36 4f be
       -0.49614996 -0.041370694 0.19638303 -0.20235698
000290 38 22 be be 52 5a 0a be 55 ae b1 be d3 80 c4 3e
       -0.37135482 -0.13511017 -0.34703317 0.38379535
0002a0 ed 99 eb 3e 90 6b b0 bd 85 eb 9c 3c 74 11 b4 3e
       0.46015874 -0.08614266 0.019155273 0.35169566
0002b0 e2 fc c3 3e 69 74 04 3e ef 0a d8 3e 14 da b0 3d
       0.38278872 0.12935032 0.42195842 0.08635345
0002c0 d8 31 23 3d f6 70 d4 3e c2 c6 50 be 94 ff 84 be
       0.039842457 0.41492432 -0.2038832 -0.2597624
0002d0 d1 6c fb bc 87 20 01 bf 96 f6 fb bb 6f 70 d9 3e
       -0.030691536 -0.5044026 -0.0076893074 0.42468593
0002e0 b2 ca 92 be d9 b9 df 3e 8b 73 d1 bd 98 f6 e9 be
       -0.2867027 0.43696478 -0.10227116 -0.4569595
0002f0 d3 b8 de be 0c f1 a4 be db c5 2a 3d 48 0e e5 3e
       -0.43500385 -0.32215154 0.041692596 0.44737458
000300 1d 71 05 3e c8 1c d5 be 39 92 86 3e ff 63 ce be
       0.1303143 -0.4162352 0.26283434 -0.40310666
000310 b9 54 c7 3e 3c 95 eb 3c 1f d3 a0 3e dc 2b 72 3e
       0.38931826 0.028757684 0.31411073 0.23649544
000320 a1 f5 57 3e 98 ae e8 3e 46 27 34 3e cc 33 77 3e
       0.21089794 0.45445704 0.17593107 0.24140853
000330 3f 05 d2 3d c0 12 a8 3e e3 5b 6e be 0c b9 cb 3e
       0.10254907 0.32826805 -0.2327724 0.39789617
000340 1d a9 f4 3e a0 59 b4 bd 60 ef 82 be b0 08 1e be
       0.47785273 -0.08806157 -0.25573254 -0.15433002
000350 1d 17 cc 3e cf cf 05 3e 92 c7 2d be 30 f1 e5 3e
       0.39861384 0.13067554 -0.16970661 0.44910574
000360 91 d3 67 3d 07 5c 90 3e 59 15 9f 3d 24 b7 c6 bd
       0.05659825 0.2819521 0.077677436 -0.097029
000370 6a 66 ac bd 07 74 7f 3d 34 f7 5c 3e c9 d5 95 3e
       -0.084179714 0.06236651 0.21578676 0.29264668
000380 d7 2b 97 be 9e bd 88 be 66 a6 08 3f 62 ca 71 be
       -0.29525635 -0.26707166 0.53378904 -0.23612359
000390 a2 cb 5f be e5 85 8a be 5a 01 ef 3e f8 01 9c 3e
       -0.21855024 -0.27055278 0.4668072 0.30470252
0003a0 0b 18 c6 3e 17 89 f8 bd a8 38 a8 3c de 7b f3 bd
       0.38690218 -0.12135523 0.020534828 -0.1188886
0003b0 8a 52 ca be 3f 12 ef 3e 50 f1 48 be 59 7c ba be
       -0.39516097 0.46693608 -0.19623303 -0.36422995
0003c0 d7 79 86 3e 50 01 a5 bd 87 1f b8 bd ae 8a 8b be
       0.2626483 -0.08056891 -0.08990388 -0.27254242
0003d0 3e c6 83 bd bf 48 52 3e 40 6a 61 3e 3c a2 f8 3b
       -0.06434296 0.20535563 0.22013187 0.007587699
0003e0 02 31 f9 3e a0 10 b4 3d ad 02 0a 3e 54 ca b6 3b
       0.48670202 0.087922335 0.13477583 0.0055783186
0003f0 55 a0 47 3d 60 cd db 3e 5c 90 93 be fa 51 d1 3e
       0.04873689 0.42930126 -0.28821075 0.40882856

linear1.bias f4 [256]
000000 b7 44 f9 bd fa 39 cc bd 9a cf b1 be c3 07 a6 be
       -0.121713094 -0.09971996 -0.347287 -0.32427797
000010 c6 d3 ba be 98 f0 8a 3e 1e 9f dd be de 79 2a 3e
       -0.36489695 0.27136683 -0.4328546 0.16648051
000020 8a 07 8c be 99 ae 5a 3e 44 09 bb bc bc 3f 25 be
       -0.27349502 0.21355666 -0.022831567 -0.16137594
000030 b1 9c d3 3e 21 d7 ad 3d c7 4d d5 be 8c b3 6a be
       0.41330484 0.08488298 -0.41660902 -0.22920054
000040 b0 0e a0 3e 0c 95 a6 be 02 cd 99 be e9 20 cc be
       0.31261206 -0.3253559 -0.3003922 -0.39868858
000050 88 27 ec 3e a6 a5 41 be 57 b5 9e bd 86 41 ae be
       0.4612391 -0.18910846 -0.077494316 -0.34034365
000060 58 ce 0e be aa 07 d8 be 8c 3f 4e 3e ea 3e c0 be
       -0.13945901 -0.42193347 0.20141429 -0.37548
000070 dc 0e 97 3d c7 0d e1 3e 30 9b b9 be e8 e9 95 be
       0.07375881 0.43955824 -0.3625121 -0.2928002
000080 31 43 00 3e b5 0d 2e 3e 32 62 db 3d 4e c2 b2 be
       0.12525631 0.16997416 0.10712089 -0.34913868
000090 67 e6 4f be 85 26 bc 3d 95 92 98 3d ac 5c 3a bc
       -0.20302735 0.091870345 0.07449833 -0.011374634
0000a0 9a 62 8a 3e 8a d7 14 be 67 e7 d9 be 0d 53 44 be
       0.27028352 -0.14535347 -0.42559358 -0.19172306
0000b0 8c ba 0b 3d 5a 0a 88 3e ad 30 85 3e 28 29 e0 3e
       0.03411345 0.26570398 0.260137 0.437814
0000c0 53 43 01 3f dd 0e 9e 3c 72 96 ec 3d 3c 95 1b 3d
       0.50493354 0.019294197 0.11552133 0.037984118
0000d0 65 e1 d4 be c4 d2 39 3e d3 0d 35 3e 07 36 88 3c
       -0.41578212 0.18146807 0.17681055 0.016627325
0000e0 57 25 5a be e0 06 a9 be a6 84 34 3e 53 f2 12 3e
       -0.21303307 -0.33013058 0.17628726 0.14350252
0000f0 f7 c5 83 bc 72 0d 9d bd b6 f5 8b 3d dc d9 2a 3e
       -0.016085608 -0.0766858 0.06833975 0.1668467
000100 73 48 76 bc 42 58 f5 3e cc c1 b1 3c 1b 73 1d 3e
       -0.015031922 0.47918898 0.021698855 0.1537594
000110 dc 42 2d be 97 91 84 be 8a 66 85 3e 8b 71 11 be
       -0.16920036 -0.25892326 0.26054794 -0.1420347
000120 d6 05 f0 be 5d a4 ef be 23 2e c3 be d4 02 bd 3e
       -0.46879452 -0.46805087 -0.38121137 0.3691622
000130 7c d8 b3 3e ca f6 0d 3d f6 9f b8 3c e4 23 4a be
       0.35126102 0.034659185 0.022537213 -0.19740254
000140 26 24 92 3e f1 98 70 3e 0b 63 f1 be b0 a2 25 3e
       0.28543204 0.23495843 -0.47145876 0.16175342
000150 a4 b4 68 be 6f a8 81 3e 66 39 2a be ff c2 de bd
       -0.22725159 0.25323817 -0.16623458 -0.10877036
000160 96 52 bb 3e 52 a1 f7 3e 34 fc ce be ff 7a fe be
       0.36586446 0.48365265 -0.4042679 -0.49703214
000170 6c 86 94 3e ec fe e6 be 98 6c cc bd bf f1 f6 3d
       0.29008806 -0.45116365 -0.0998165 0.12057828
000180 81 6d 45 bd 90 6e 37 3e fc 7f 2f 3e b2 9d ae 3e
       -0.048200134 0.1791327 0.17138666 0.34104687
000190 f7 d6 a8 bb e7 e1 eb 3e 25 b6 21 3e 6a d9 d5 be
       -0.005152579 0.46070787 0.15792139 -0.41767436
0001a0 9e 9e eb 3e 6f 9b 83 3e 79 42 c2 be 3b a8 86 be
       0.46019453 0.25704524 -0.3794134 -0.26300225
0001b0 40 62 ee bd 86 08 c9 bd 28 0a fc 3e 2e bd cb 3e
       -0.116398335 -0.09816079 0.492265 0.3979277
0001c0 d5 72 cd bc e9 23 d2 be 7f 25 a7 3d f6 7f 70 3e
       -0.02507917 -0.41043022 0.08161449 0.23486313
0001d0 df 82 eb 3d 54 0a dd be b6 64 b3 be 39 c5 f6 be
       0.11499571 -0.43171942 -0.35037774 -0.48197344
0001e0 b2 64 f3 be f4 a4 d7 be f2 6b 92 bd 9f 87 45 3e
       -0.47537762 -0.42118037 -0.07149495 0.19290017
0001f0 7f d6 a2 be 7a fb c8 3e c4 27 a7 be 60 76 7b be
       -0.31804273 0.3925436 -0.32647526 -0.24556875
000200 a7 1e 84 bd 18 cc 85 bc 32 ed 91 be 03 8d 1e 3e
       -0.06451159 -0.016332671 -0.28501278 0.15483479
000210 58 a9 2d 3e 72 01 a4 bd 28 d8 bb be 25 84 e1 3e
       0.16959131 -0.08008088 -0.36688352 0.4404613
000220 03 85 de 3e 43 96 ef 3e 99 ed c3 3e f2 74 f3 be
       0.43460855 0.46794328 0.3826721 -0.4755016
000230 65 d4 0e be 47 aa b4 3d be 37 d7 3e 18 fc 67 bd
       -0.1394821 0.0882154 0.42034715 -0.0566369
000240 25 52 52 be 14 c4 f4 be 00 b9 7f be f3 5c ec 3e
       -0.20539148 -0.47805846 -0.24972916 0.46164665
000250 0f e9 72 3e ca 87 5d 3e 8a 1d e8 3e fa 81 d3 3e
       0.23721717 0.2163383 0.45335037 0.41310102
000260 ae 1d 71 bd d2 40 a5 3e 0f 64 cc 3e e5 b7 76 3e
       -0.058866195 0.32276016 0.3992009 0.24093588
000270 d5 c3 c5 3e 59 35 6d 3e 02 48 d8 be 00 41 2a be
       0.3862597 0.23164882 -0.42242438 -0.16626358
000280 1e 80 36 3b 7e 9a e4 3e 53 4a e6 3e 28 db 3a 3e
       0.002784736 0.44649118 0.4497858 0.18247664
000290 c3 14 d1 3e 11 2f aa be 06 9c c6 3e cf ed e2 3c
       0.40836152 -0.33239034 0.3879091 0.027701287
0002a0 57 be 69 3c 33 fe 46 be 7e 4c 14 3e 70 17 94 bd
       0.014266572 -0.19432907 0.14482304 -0.07231033
0002b0 7b e1 41 bc f8 5d dc 3e e2 d7 08 3e 90 ae b8 be
       -0.011833544 0.43040442 0.13363603 -0.3607068
0002c0 b7 b4 7f be db 57 c2 be 1b 7f c6 3c b1 18 69 3e
       -0.24971281 -0.37957653 0.02423053 0.22763325
0002d0 ed dc 70 be 58 16 4d be e3 7f 66 be d0 07 c7 be
       -0.23521776 -0.20028055 -0.22509722 -0.38873148
0002e0 06 ec f6 3d 87 2a 67 be 09 6b a9 be 36 9c 39 be
       0.12056737 -0.22574817 -0.33089474 -0.18125996
0002f0 6a 66 82 be be f0 9e 3e 6f 8f b5 3e f8 9d 3b be
       -0.2546876 0.31043047 0.35460994 -0.18321979
000300 30 15 cb be 19 fa 83 3c 0b 61 8d 3e b6 2b 84 be
       -0.39664602 0.016110467 0.276131 -0.258146
000310 18 c3 d3 be 90 d5 3e 3d b0 51 5c 3e 60 a5 b7 3e
       -0.41359782 0.046590388 0.21515536 0.3586836
000320 16 a2 9d be 0e 70 36 be 1e 44 dc 3e cc 90 2c 3e
       -0.30787724 -0.17816183 0.4302072 0.1685211
000330 60 d9 7a be 6f ca 23 be c2 15 3a 3e 80 99 3d bd
       -0.24496984 -0.15995191 0.18172362 -0.046288967
000340 e8 8e 0c bd 51 c6 a1 3e fc b7 d7 be b2 80 f1 3d
       -0.034315974 0.31596616 -0.42132556 0.11792125
000350 1d 2b 23 be 1b b1 53 be ab 3a b9 3d 89 76 a4 3e
       -0.15934415 -0.20673029 0.09044393 0.32121685
000360 74 9f 93 be 27 09 27 be cd e5 78 bd 70 84 7f 3e
       -0.2883259 -0.16312085 -0.06076603 0.24952865
000370 7f ac 6f be 42 ce cc be 8b cc 00 3e 45 99 bd 3e
       -0.23405646 -0.40001112 0.12578027 0.37030998
000380 39 5b 16 3e 89 be 77 3e fe f7 db 3e a5 bb ad 3d
       0.14683236 0.24193777 0.4296264 0.08483056
000390 ab 6b 7c be e6 aa 8d bc d3 01 92 bd ca 4e 36 3e
       -0.24650447 -0.017293405 -0.07129254 0.17803493
0003a0 e6 54 6e bd a4 de 29 be 9d 0b 41 3d 82 c4 6c bc
       -0.058186434 -0.16588837 0.047130216 -0.014451148
0003b0 3e 76 ad be d4 7e ce 3e 16 d6 8a 3e 46 f9 be be
       -0.33879274 0.40331137 0.2711646 -0.37299556
0003c0 4b 41 ca bd d3 71 65 3e 31 84 25 be b3 f8 19 3c
       -0.09875735 0.22406702 -0.16163708 0.009397673
0003d0 a5 17 fd bd 4a 06 53 be 0d 3e d5 be 30 9f 53 bd
       -0.123580255 -0.20607868 -0.41648903 -0.051665485
0003e0 a9 db 90 3e c4 96 70 3e f0 5f 31 be 22 c7 10 3e
       0.28292587 0.23495013 -0.17321754 0.14138463
0003f0 a4 00 ef be 00 fe c4 3e b7 91 ba 3e 61 8e d1 3e
       -0.46680176 0.38475037 0.36439297 0.4092894

linear2.weight f4 [3, 256]
000000 e1 63 80 3d 68 f1 93 bc 00 f3 c0 bc 35 48 d0 bc
       0.062690504 -0.018059447 -0.023553371 -0.025425056
000010 92 7d 35 3d e1 59 2b 3c a7 a2 34 3c 67 9b 57 3d
       0.044309206 0.0104584405 0.0110251075 0.052638438
000020 3a 12 5e 3d ba 4e c8 bc b5 c6 3b 3d 7a f5 2e bd
       0.0542166 -0.024451602 0.0458438 -0.042714573
000030 dd a0 60 bc 35 44 30 3b 72 a8 72 3d 8a f0 67 3d
       -0.013710228 0.0026896123 0.059242673 0.05662588
000040 24 b3 66 bd eb b1 87 bc 30 68 29 3c 0d 48 e6 3c
       -0.056323186 -0.01656433 0.010339782 0.028110528
000050 57 7b 48 bd 6f dd b6 bc a5 92 1f 3d c2 62 93 3c
       -0.04894575 -0.022322385 0.03895821 0.017991427
000060 f0 a1 17 bc 24 9a e5 3c d2 84 c1 3b 86 73 65 bd
       -0.0092549175 0.028027602 0.005905726 -0.056018375
000070 ba 33 2b bc 6a f1 cf 3c c0 af 8b 3b d0 3c 2c 3d
       -0.010449344 0.02538367 0.0042628944 0.042050183
000080 e8 f8 91 3c db b8 09 3d 23 3f cf 3b 55 a7 68 3c
       0.017818883 0.033623558 0.006324665 0.014200051
000090 17 b7 e8 bc 76 03 4a 3d be 02 10 bd b5 72 d4 3c
       -0.028407617 0.049319707 -0.035158865 0.025933603
0000a0 94 5b 98 3c 5a dd 8e 3d 96 16 01 3d 05 fb 85 bd
       0.018598355 0.06975813 0.03151568 -0.06542019
0000b0 ab 47 cc bc ec e0 68 3d bb bb 90 3b ce cd bc 3d
       -0.024936518 0.056855127 0.0044169105 0.09218942
0000c0 bb ff 5d 3d 6a 51 6d bd 8b 0e 7e bd 0c 95 8e 3b
       0.05419896 -0.05793897 -0.062025588 0.004351264
0000d0 fd 60 9b 3d 11 7f e3 3c 56 3d 89 bd e2 14 9b bc
       0.075868584 0.02777055 -0.06701152 -0.018930856
0000e0 a7 60 1c 3d f4 50 86 3d c7 ff 95 3d 89 d1 95 bd
       0.038178112 0.06558409 0.07324176 -0.07315356
0000f0 c5 44 03 3d fb b5 1d bc a6 4c 34 bc 34 44 44 3d
       0.032048006 -0.009625907 -0.011004603 0.047916606
000100 1c da a2 3c de ac 33 3d b6 5a 14 3d 91 6d 0f bc
       0.019879393 0.04386603 0.03621932 -0.00875415
000110 20 16 29 3c fb 9d 6f bd 70 07 fc bc 0c 3d 0b 3d
       0.010320216 -0.05850027 -0.030765265 0.033993766
000120 28 63 d4 bc 49 ad 98 bc 51 94 08 3d a0 a2 b2 3c
       -0.025926188 -0.018637316 0.03334457 0.021806061
000130 99 56 01 3d ac 75 51 bd 37 6a be 3d 05 d9 ad 3b
       0.031576727 -0.05113761 0.092976026 0.0053054118
000140 0c 16 1d bd b7 60 db bc e9 b8 2b 3d 0b 8d 9b 3d
       -0.038351104 -0.026779516 0.04192439 0.07595261
000150 9e aa 37 bd 1c 35 22 bb 3e 1c ad 3d ae d8 3c bc
       -0.044840448 -0.0024750894 0.084526524 -0.01152627
000160 ca 8b 6a bd 58 ca 57 bd 85 bc b9 3d 52 a6 5d 3d
       -0.05726222 -0.052683204 0.0906916 0.054113694
000170 5e 65 d8 b9 8b 80 46 3d 5e f4 7c bd 68 3f e0 3d
       -0.00041274255 0.048462432 -0.061756484 0.10949594
000180 f4 4b 3d 3d 18 a8 a3 ba 8b f4 0e bd 9a 60 c7 bb
       0.046215013 -0.0012486009 -0.034901183 -0.006084514
000190 53 cb 60 bd 14 1c 26 3d 36 05 b8 3c 92 5b 60 3d
       -0.054881405 0.04055412 0.022463422 0.05477483
0001a0 80 25 c7 3c d6 74 94 bc 5e cf 96 3d de 6c 26 bd
       0.024309874 -0.018122118 0.07363771 -0.040631168
0001b0 a0 94 75 3d d0 b9 8d 3b 93 83 00 3d cd e0 08 3d
       0.059956193 0.004325129 0.03137548 0.03341751
0001c0 c2 b6 e3 3d e9 3a 83 bb e3 64 b9 bb ff cc 63 bd
       0.11118843 -0.0040048254 -0.0056577786 -0.05561542
0001d0 75 8c 2d ba 87 95 b9 3c cc a8 85 3c 0e 35 49 bd
       -0.0006620356 0.022654308 0.01631584 -0.049122863
0001e0 f0 b7 2b bb dd d9 04 3c bc 7e 36 bd c0 9a 35 bd
       -0.0026202165 0.008108583 -0.044554457 -0.044337034
0001f0 fa 99 55 3d 02 18 3f bc 07 51 25 3d e7 8a e6 bc
       0.052148797 -0.011663439 0.040360477 -0.028142406
000200 49 08 17 3d 41 0c 6e bd b6 a3 37 bd 5f c4 4e 3c
       0.036873136 -0.058117155 -0.04483386 0.012620061
000210 cc c5 8c 3d 80 46 4c bd dd 77 51 bc 65 82 ca 3a
       0.06873664 -0.04987192 -0.012784925 0.0015450238
000220 7f 1d 56 bd 0f 59 4b bc f0 41 06 3d 48 02 37 3d
       -0.052274223 -0.01241137 0.032777727 0.04467991
000230 af cb 4e 3d ac 98 31 3d 16 33 3e 3d 58 56 34 3d
       0.050487217 0.04335849 0.046435438 0.044027656
000240 0a c0 4f bd e0 b4 f2 3c 50 f6 15 bd 89 dd b7 bb
       -0.050720252 0.029627264 -0.036611855 -0.005611126
000250 15 58 b8 3d 10 65 7d bc c0 5b 8a bd 09 16 79 bc
       0.09001175 -0.01546599 -0.06755781 -0.0152030075
000260 3c c9 fb 3c d3 0d 51 3d 3b 75 28 bd ba e9 94 bc
       0.030735604 0.051038574 -0.041127425 -0.018177856
000270 9a e0 ec bc 23 09 2c 3d 34 30 5c 3d 23 85 6c 3d
       -0.028915692 0.0420009 0.053756908 0.057744157
000280 de d3 19 3d d4 77 1f 3d 82 10 3a bd fc fd 68 bc
       0.037555568 0.038932636 -0.0454259 -0.014220711
000290 fe 8c ab 3c 1b 02 bc 3b c2 e5 41 3d e4 2c 60 bc
       0.020941254 0.0057375557 0.047338255 -0.013682578
0002a0 f5 d3 48 bc 7f 05 20 bc 5a 17 84 bb f5 62 b4 bc
       -0.012257566 -0.009766935 -0.004031104 -0.022019843
0002b0 0a cf 04 bc 5d ff 08 3d 87 e0 3d 3d 0f da 12 3d
       -0.008106003 0.03344666 0.046356704 0.035852488
0002c0 34 7e 71 bb 25 3e 51 3d 30 0e e9 3c 5c e4 47 bd
       -0.0036848905 0.051084656 0.028449148 -0.048801765
0002d0 ca 4a f7 bc e4 a1 e0 3c 6d 55 4c 3c 65 dd de 3a
       -0.03018703 0.027420945 0.012471539 0.0017003237
0002e0 39 65 26 bd 85 9b 2d 3d c0 42 a0 3a 82 b7 3c 3d
       -0.040623877 0.042384643 0.0012226924 0.046073444
0002f0 2d 76 54 bd b6 d0 8a bd 15 97 bd bc 33 38 b3 bb
       -0.051870514 -0.0677809 -0.02314333 -0.005469346
000300 18 5a 39 3d c1 53 18 bb 26 c1 ca 3c 1b 3b f4 3c
       0.045251936 -0.002324328 0.024750303 0.02981334
000310 89 9a 60 3c ea 13 e2 3c b2 77 c7 bc fb 4d 32 bc
       0.013708719 0.027597386 -0.024349067 -0.01088285
000320 70 2c f6 3c 61 72 48 bd 31 d0 b4 bc ed bf 0e 3d
       0.030050486 -0.048937205 -0.02207193 0.034851003
000330 4e 68 8f 3d af 3e 29 3d 93 8d 28 3d f0 d1 38 bc
       0.070023164 0.041319545 0.04115064 -0.011280522
000340 95 ae 40 3d 39 d9 11 bd f8 cd 75 bd 96 dd 43 3c
       0.047041494 -0.03560755 -0.06001088 0.011954686
000350 63 0e 6e 3d c8 6c a4 bc d7 b0 85 3d 1b 0f e1 bb
       0.05811919 -0.020071402 0.0652787 -0.006868256
000360 da 37 3b 3d cc 8b e8 bc 2c 57 a2 bc 8c 79 34 bc
       0.04570756 -0.028386973 -0.019816957 -0.011015307
000370 55 78 b9 3d 9e fc 34 bd e1 71 47 3d f2 5c d3 3b
       0.09056155 -0.044186227 0.048692588 0.006450289
000380 13 db 33 3d 9b 4a af bb 67 8e 96 3d 08 12 26 3d
       0.043910097 -0.00534947 0.0735138 0.04054454
000390 e1 f2 04 3c 6c ad 37 bd 36 6c 7b 3c e5 a4 6a bc
       0.0081145475 -0.044843122 0.015345624 -0.0143215405
0003a0 5d 40 35 3d 63 19 53 bb 2e 1b 1c 3d b7 34 57 bd
       0.044250835 -0.0032211177 0.038111858 -0.052540507
0003b0 ae 62 20 bc bf a5 6b 3c c3 68 ab 3a e8 61 78 3d
       -0.009789152 0.014382779 0.0013077486 0.060640246
0003c0 11 bf de 3c 01 c9 3f 3d 19 b2 e0 3c 0b 71 a8 bc
       0.027190717 0.04682255 0.027428674 -0.020561716
0003d0 73 57 f7 bc 9a df 3a 3c 20 65 09 bc a2 cc cd 3c
       -0.030193066 0.01140585 -0.0083859265 0.02512199
0003e0 8d 2e 98 3c 73 f4 aa 3c 99 2a 34 3d d8 10 82 3d
       0.018576885 0.020868516 0.043985937 0.06350869
0003f0 7b 24 27 bd cc ca f0 bc 82 b5 4d 3d dd 8e 17 bd
       -0.040806275 -0.029393576 0.050221927 -0.03700148

linear2.bias f4 [3]
000000 e4 03 aa 3c d9 e1 88 3d a8 f0 07 3d
       0.020753808 0.06683702 0.033188492
