snake_game/TRAINED_MODEL/model.pt (torch, 16787 bytes, 4 tensors)

linear1.weight f4 [256, 11]
000000 ef 70 00 be 19 ef b9 3e 0d 6f 83 bb 65 0c ac bd
       -0.12543081 0.3631523 -0.004011041 -0.084008016
000010 8d 5e 85 be 8d ea 69 be 68 d8 75 3d b4 73 8e be
       -0.260487 -0.2284338 0.060020834 -0.2782265
000020 d1 5a 7a 3e 5c 3d 60 be c5 21 a5 be d2 ef 30 bf
       0.24448706 -0.21898407 -0.32252327 -0.69115937
000030 e6 09 26 3e ed c5 c4 3d dc 97 3b 3e ed b5 ba 3e
       0.16214713 0.09608064 0.18319649 0.36466923
000040 46 ec 36 3e 7a f4 86 be 88 0c d4 3d 89 d6 b3 3d
       0.17863569 -0.26358396 0.10353953 0.08781154
000050 6c 3b b0 3a fd f5 ba be 1b 27 1d 3f ec 6c 4b 3d
       0.0013445443 -0.365158 0.61387795 0.049664423
000060 5c 5d 07 bf b7 94 00 bd 05 f1 cc 3c da 34 33 3e
       -0.5287683 -0.031391826 0.02501727 0.1750063
000070 24 1e bf 3d 19 43 58 be 64 f3 16 be f4 ec 0f bd
       0.09331921 -0.21119346 -0.14741284 -0.035138085
000080 e3 7d ba bc 97 dc ab 3e a1 ca 99 3d b4 bf a6 3e
       -0.022765106 0.33566734 0.075093515 0.32568133
000090 06 bc 02 bc 2a e0 03 be df d8 75 be 33 82 24 3d
       -0.007979399 -0.1287848 -0.24008511 0.04016323
0000a0 71 f9 56 3e e6 9a f4 3d b2 5c 94 3e 0a 57 f6 be
       0.20993592 0.11943607 0.2897697 -0.4811328
0000b0 3f 8c 8f be ad 0e bb be f6 2c 26 3f b8 89 6b bd
       -0.28036687 -0.36534634 0.64912355 -0.057504386
0000c0 00 6d 8c bd 3b fa b3 be 4b fd d5 bc c9 da ee bb
       -0.068567276 -0.35151848 -0.026121756 -0.007289265
0000d0 db 65 a3 bd 33 93 b6 be b5 83 6f 3d 3b d8 cb 3e
       -0.07978412 -0.3565918 0.058475215 0.39813408
0000e0 d4 0b 2f bf b0 8a b9 3e 37 32 9f be 93 46 3f 3e
       -0.68377423 0.36238623 -0.31092998 0.18679266
0000f0 46 2c 59 be 74 e9 d9 3c 0a f5 bc 3e 35 ff 6b bd
       -0.21208295 0.026600577 0.369057 -0.05761643
000100 29 ca da bd b6 5a ff 3d a8 4c 8f bd 7d 21 33 bf
       -0.1068309 0.124684736 -0.06997043 -0.69972974
000110 9c fb 25 3f 40 33 b3 3e 40 dc 8a bd 9d f6 ac bd
       0.6483705 0.35000038 -0.067802906 -0.08445475
000120 80 fc 2d 3d 44 70 05 be 9c 12 57 3e 5c 1e b0 3e
       0.04247713 -0.13031107 0.21003193 0.34398162
000130 04 4d bc bd a3 7e c1 3e f5 88 e5 bd 1f 43 b1 bb
       -0.09194377 0.3779193 -0.11207763 -0.005409613
000140 c5 19 84 3e 64 d0 dc bd 36 51 4d bd 3a 2a fb be
       0.2580091 -0.10781935 -0.050126277 -0.49055654
000150 09 1d 98 be a5 e7 a0 bc d8 13 50 3d 08 18 c9 3e
       -0.29709652 -0.019641707 0.050800174 0.39276147
000160 75 5b b5 3d 8f e8 2c 3e b3 a9 9b 3d 39 1d 4d bb
       0.08855335 0.16885589 0.07600727 -0.0031297936
000170 ff 74 3e 3d 49 82 c6 3c f2 ba 0e 3a 60 3d c1 3d
       0.046498295 0.024232047 0.0005444727 0.094355345
000180 14 40 8e be 2b 82 99 be cc 33 52 be 8d d3 1b bd
       -0.27783263 -0.29982123 -0.20527571 -0.038043547
000190 89 80 6b 3e 6d a2 3a bf 55 18 96 3e ab 9c 87 3e
       0.22998251 -0.7290409 0.2931544 0.26486716
0001a0 9c dc db 3e ca df 90 3e b0 c5 a7 be d1 23 0c be
       0.4294175 0.28295738 -0.3276801 -0.13685538
0001b0 40 65 f3 bd 07 00 6d be 8a c8 54 be 4a 70 d5 3e
       -0.11884546 -0.23144542 -0.20779625 0.41687232
0001c0 2c 8b be 3e 10 74 ae be c0 37 b7 be 3d 9a 8c 3e
       0.37215555 -0.34072924 -0.3578472 0.27461424
0001d0 50 42 61 3e 51 ae be be e0 e4 66 be 4b d2 9c 3e
       0.21997952 -0.37242368 -0.22548246 0.3062919
0001e0 66 6c 78 3e 33 5f d7 bd a1 85 f1 3c c8 f8 14 3f
       0.242601 -0.10516205 0.029482665 0.5819211
0001f0 94 aa 95 be a0 e8 e2 bd 73 f6 bb bd 75 4e 95 3e
       -0.29231703 -0.11079526 -0.09177866 0.2916142
000200 a4 a9 2d be 9e 5b 9f be f5 74 8b be 33 2a 33 bb
       -0.16959244 -0.31124586 -0.2723767 -0.0027338385
000210 24 e6 b0 3d 20 66 b1 bd 0b 29 12 be 1b 4a 99 be
       0.08637646 -0.08662057 -0.14273469 -0.2993935
000220 56 ef 90 3e 12 16 73 bd 4c e9 06 bd 2c 48 89 be
       0.283076 -0.05934722 -0.032937333 -0.26812875
000230 b1 4e b5 bc 69 99 b3 be 4f 4c 63 be 51 8b d2 be
       -0.02213225 -0.3507798 -0.22197078 -0.41121915
000240 5f 57 39 be 74 7b 3a 3f b8 f7 9c 3d cb 52 3c 3e
       -0.18099736 0.72844625 0.07664436 0.18390958
000250 09 fc a6 3d 89 cb 25 be 54 35 df bd 4a a7 37 3d
       0.08153541 -0.16190924 -0.108988434 0.044837274
000260 28 74 10 3e 0c e9 71 be c5 24 fc 3d 6d 1f 22 3e
       0.1410681 -0.23624057 0.12311701 0.158323
000270 eb ef c6 3e d5 f8 5e be 53 ac af bc d6 11 00 be
       0.38854918 -0.2177461 -0.021444475 -0.12506804
000280 30 bb 19 3e 3f a2 88 3e 24 4f 77 3e a7 58 44 3e
       0.15012813 0.26686284 0.24151284 0.19174443
000290 32 28 ea 3e a3 73 93 be 53 37 44 3d 3b 09 94 bb
       0.45733792 -0.2879916 0.047904324 -0.004517702
0002a0 f7 bb ad 3e b2 c4 cf be 6b 59 9c 3e 2c 2c 3a 3b
       0.33932468 -0.40579754 0.3053697 0.0028407676
0002b0 f3 ba bd be bd 5b bc 3e 74 a6 c2 be c8 63 6c bd
       -0.37056693 0.3678874 -0.3801762 -0.057712346
0002c0 b3 fd bc bc a7 60 ce be 0e 4e ff 3e fd fb 76 3c
       -0.023070192 -0.40308115 0.49864239 0.015074727
0002d0 08 0a 8d be 5c 6f 07 be f4 95 39 3e 45 41 23 3e
       -0.27546716 -0.13226074 0.18123609 0.15942867
0002e0 b8 17 40 be 34 37 45 3e 6c 3a 0c 3d 97 15 3a 3e
       -0.18759048 0.1925934 0.034235403 0.18172298
0002f0 d4 7e 59 be e2 1e ee 3e 2e b7 8b 3e f7 80 bd be
       -0.21239787 0.46507937 0.27288193 -0.37012455
000300 9d e5 7f 3e 96 65 2b be 0a 36 d9 bd b6 c0 59 3e
       0.24989934 -0.1673797 -0.1060601 0.2126492
000310 e0 9f 5c be c5 04 5d be b2 67 33 3e 71 41 60 be
       -0.21545362 -0.2158385 0.17520025 -0.21899964
000320 3d d3 23 3e d4 34 e8 3e be c5 79 bd c3 0c 9b 3e
       0.1599855 0.45352805 -0.060979597 0.30283174
000330 ec 47 1e 3d ba 11 82 be 09 04 b4 3e 4a 37 25 bc
       0.03864281 -0.2540415 0.3515933 -0.010083983
000340 79 34 48 bd 49 3e 8f 3e ef e8 a6 3d 10 d3 f8 be
       -0.048878167 0.27977207 0.08149897 -0.48598528
000350 de 11 82 bd 70 94 7b 3d b6 39 81 bc 34 a5 bb be
       -0.06351064 0.061420858 -0.015774589 -0.36649477
000360 5a 79 60 3e ae e7 2b 3e a1 44 36 3e a6 29 1b 3f
       0.21921292 0.16787598 0.17799617 0.60610425
000370 0b 97 e3 3e f3 5e 91 be 92 6d eb be 73 a1 d6 bd
       0.44451174 -0.28392753 -0.45982033 -0.10480013
000380 57 dd 7e be a9 a1 6d bd f0 b9 07 3d c7 7d 89 3e
       -0.24889122 -0.0580155 0.03313631 0.26853773
000390 57 5f c4 3e 00 f6 2a 3e f5 fa 38 3e bd d8 85 3d
       0.3835399 0.16695404 0.18064483 0.0653548
0003a0 f8 e8 31 3f 3c d1 99 be 48 5b 30 3e 84 74 8c be
       0.6949611 -0.30042446 0.17222321 -0.27432644
0003b0 58 3e ad 3e 74 72 ee 3d 07 d6 b0 3d 40 28 00 be
       0.33836627 0.11642924 0.086345725 -0.12515354
0003c0 59 26 8c be 7f 06 33 be 69 3b 61 3e 6c b3 e3 3e
       -0.27373007 -0.17482947 0.2199532 0.44472826
0003d0 96 92 32 3e 66 f5 e0 bd e5 10 b8 be ea fb 4d be
       0.1743873 -0.10984306 -0.3595039 -0.20115629
0003e0 f0 d8 89 be 0a 26 b6 ba 0e d7 69 3e 47 6f a9 3e
       -0.26923323 -0.0013896835 0.22835943 0.3309271
0003f0 d7 be 13 3e 73 ac 85 3d 56 50 31 be 79 ae 0c 3d
       0.14428268 0.06527033 -0.17315802 0.034346078

linear1.bias f4 [256]
000000 84 5d af bd e5 f0 48 3e 7d 5c ff 3d 74 65 27 be
       -0.085627586 0.19623144 0.124688126 -0.16347295
000010 fe 56 b6 3e e9 36 dd bd 3c 5b 83 be ec ca f3 3c
       0.35613245 -0.10801489 -0.25655544 0.029759847
000020 17 6e c3 be 0d f4 13 3f 42 5f 5f bb d5 e7 30 3d
       -0.3816993 0.57794267 -0.0034083878 0.043189842
000030 8a 9d 0f 3c 66 9b 0e 3e 29 ae 02 3e 9c 05 bc 3c
       0.008765588 0.13926467 0.1276175 0.022951894
000040 53 89 56 bd c8 1e 0e be 7a a2 6d be 8a 8f 81 be
       -0.052377056 -0.1387893 -0.23206511 -0.25304824
000050 c3 f1 25 be 3c 35 43 3e 0e 4e 5f 3c a4 0a f2 3d
       -0.16205506 0.19063276 0.0136294495 0.11818436
000060 40 1c c1 be d3 a0 32 3c 9c 0e ca bd 02 1e a2 3e
       -0.37716866 0.010902601 -0.09866068 0.3166352
000070 c8 74 de 3d 33 4f 92 3e ff 52 5f be 15 06 1b bd
       0.10862118 0.2857605 -0.21809004 -0.037847597
000080 ec 9b 24 be e2 79 d9 bd 2a 4e 39 3d 44 b6 43 be
       -0.16075104 -0.106189504 0.04524056 -0.19112498
000090 1c 33 15 3e 04 e6 ba be 7f b8 0a be 2a 82 a9 bd
       0.14570278 -0.36503613 -0.13546942 -0.0827678
0000a0 9d 53 8e 3e 35 34 2e be 7f 9d 2f be 3b b0 52 3d
       0.27798167 -0.17012103 -0.17149924 0.051437598
0000b0 0a 9d 97 bd 65 d0 a8 3e e0 77 0b 3f 2a 9b 5f bd
       -0.07403 0.32971492 0.5447979 -0.054591335
0000c0 2f 05 62 be 62 da 4f 3e e0 57 de 3a 51 d9 5c 3d
       -0.2207229 0.2029815 0.0016963445 0.053918187
0000d0 d1 aa 91 be 73 d0 6a be bb e2 41 3e 2f 0f d8 3d
       -0.28450635 -0.2293108 0.18934147 0.10549771
0000e0 4d 54 8f be 0a 30 98 3e 0e 72 fd bc 14 d4 d4 be
       -0.27994004 0.2972415 -0.030938175 -0.41568053
0000f0 71 d3 a1 3e 86 1d d1 3b 6e f5 8d be f9 2c b6 be
       0.3160663 0.0063816933 -0.2772631 -0.35581186
000100 bb bc b2 be 67 b4 0d be 8d 44 d2 3e 13 d4 ce 3d
       -0.34909615 -0.1383835 0.41067925 0.10099044
000110 c4 69 34 3c 2b 74 25 bb e6 8b 70 bc cb a3 a0 be
       0.011011545 -0.0025246243 -0.014681792 -0.31374964
000120 e2 68 e4 3c 32 61 a1 3d 6b 9e 1c be 81 1f 0d be
       0.027882043 0.07879867 -0.15294807 -0.13781549
000130 e8 f4 51 3d 4a 54 42 be cd 6b 1d 3e 40 fb 08 3d
       0.05125895 -0.18977466 0.15373154 0.033442736
000140 f4 40 65 bb cf b9 95 be d4 03 f2 bd f3 b0 3b be
       -0.0034981342 -0.29243323 -0.118171364 -0.1832922
000150 4e ea 10 3e ef 95 a0 3d 3a 34 63 be 09 ae 70 3d
       0.1415188 0.078410976 -0.22187892 0.058759723
000160 f2 14 a5 bb 28 5f 0f 3f 16 92 29 bd 30 68 99 be
       -0.0050378973 0.5600457 -0.041399084 -0.299623
000170 91 dd dd 3d 5b b1 08 3e e4 23 9e be 78 cc 7a bd
       0.10833276 0.13348906 -0.30886757 -0.061230153
000180 b2 27 f6 bd 3d b6 0e 3e 66 e7 61 be f9 52 cd bd
       -0.1201929 0.13936706 -0.22060928 -0.100255914
000190 6a 11 a6 be 91 aa 3e be ee f4 8d 3e d2 5f a5 be
       -0.3243516 -0.18619753 0.2772593 -0.32299668
0001a0 53 3c d6 bd 40 5c 13 bb aa 88 98 3d 88 c9 ab bd
       -0.10460725 -0.0022485405 0.074479416 -0.083880484
0001b0 41 5c 9e be 3a d5 a6 be 32 bf 98 bc 25 33 bd 3c
       -0.3092976 -0.32584554 -0.018645857 0.023095677
0001c0 e9 be 26 bd a1 00 5c bd 63 0a ba bc c3 d9 38 be
       -0.04070941 -0.053711537 -0.02271003 -0.1805182
0001d0 d2 dc 3d be 91 90 85 be 5d b5 be bd 24 3c 16 3e
       -0.18541268 -0.26086858 -0.09311936 0.1467138
0001e0 19 92 34 be e8 80 fd 3e 79 01 b3 3d 55 9c b8 3c
       -0.17633857 0.4951241 0.08740515 0.022535482
0001f0 41 e9 79 be 0a 3d af 3e 89 41 90 bd fa 2c 8a be
       -0.24405386 0.34226257 -0.0704375 -0.2698744
000200 08 74 fc 3d e6 57 08 3e ae 1d ac bd 23 cb 81 bd
       0.12326819 0.1331478 -0.084040985 -0.063375734
000210 26 4d 53 be b5 ac cb 3d 4d a1 bd 3e f4 79 52 be
       -0.20634899 0.099450506 0.37037125 -0.20554334
000220 fe c5 54 bb f3 2a 10 3e 9b 5d 65 bd a3 23 6b 3e
       -0.0032466645 0.14078884 -0.055997472 0.22962813
000230 4d 9e 97 3e 93 c3 7b 3c ce fc 82 3c 04 eb 02 be
       0.2961296 0.015366453 0.015989687 -0.12784964
000240 f4 8f 8c be 0b ca 8d 3d 9c 86 30 bd df 5c 71 be
       -0.27453578 0.06923302 -0.043097124 -0.23570584
000250 bb 8f 59 3d cc 5d 5b 3e 08 69 04 bd d5 e5 6e be
       0.053115588 0.214225 -0.032326728 -0.23329861
000260 f4 e9 30 3d 1f 67 59 3b aa 65 94 bd f0 e3 c3 bc
       0.043191865 0.0033173037 -0.072459534 -0.0239124
000270 22 21 40 3e 21 19 9f 3d bb ee 3d 3e 04 42 3c be
       0.18762639 0.07768465 0.185481 -0.18384558
000280 1c 41 94 3e 4e 51 84 3c cd 20 b5 be f9 9b 2a be
       0.28955925 0.01615205 -0.35376588 -0.16661061
000290 6d ae e5 bd 77 c7 2d bc 93 e3 79 3e 9e 12 a9 bc
       -0.1121491 -0.010606638 0.24403219 -0.02063876
0002a0 56 0c 4b bd d3 a7 d8 3d 50 2f 90 bd f3 6a de 3e
       -0.04957231 0.10578885 -0.07040274 0.4344097
0002b0 fb 49 28 bd 99 0f 1f be 5e af a3 bd 93 e0 2d 3d
       -0.04108618 -0.15533294 -0.07992433 0.0424505
0002c0 66 6b 8b bd 2e f9 df bc 88 23 8a be 66 ff 99 be
       -0.06807594 -0.027340498 -0.26980233 -0.30077666
0002d0 d2 09 05 3e 5b e3 dd bd 75 ae e9 3e 84 76 32 3e
       0.12992027 -0.1083438 0.45640913 0.17428023
0002e0 02 99 4c bd e5 fb a3 bc 31 e4 9e be c0 c3 61 be
       -0.049950607 -0.020017574 -0.3103347 -0.22047329
0002f0 25 22 fb bd f8 1e cf 3d 7f 55 70 be cf 3b 27 3e
       -0.12262372 0.10113329 -0.23470114 0.16331409
000300 2e 01 9b be 35 f7 84 be bd c7 9c 3d 25 23 72 be
       -0.30274338 -0.25969854 0.076552846 -0.23646219
000310 a6 87 d3 bd fc 14 c7 bd 4d c3 36 be e7 f3 3e 3e
       -0.10328607 -0.09720799 -0.17847939 0.18647729
000320 be a1 7f be 42 32 86 be 28 dc 96 be f3 2e d9 bd
       -0.24964043 -0.2621022 -0.2946484 -0.10604658
000330 92 26 af 3b 93 1b ba 3e 91 0e 31 3e 94 fc 01 3c
       0.005345174 0.36349162 0.17290713 0.0079337545
000340 2c 5c 4a be 08 41 2c be ec 4b 3a be 5c c5 bb be
       -0.19761723 -0.16821682 -0.18193024 -0.3667401
000350 a5 da 14 be ea de 94 be 36 39 53 3e 58 c5 21 be
       -0.14536531 -0.2907632 0.20627293 -0.15797937
000360 97 71 7d 3d be 36 5d be aa 22 f1 be a0 cb 0c be
       0.061875906 -0.21602914 -0.4709676 -0.13749552
000370 e9 5b 9a 3d eb ee d1 3b f4 50 dc 3e 9f 60 ce 3c
       0.07537062 0.006406655 0.43030512 0.025192557
000380 5e 3d 8f be 48 6c e0 3d dd 08 98 3c bd b0 9a be
       -0.27976507 0.10958153 0.018558914 -0.30212966
000390 67 f1 81 3d 7f f5 b1 3a cc 05 0a be 94 99 ed bd
       0.06344872 0.0013577192 -0.13478774 -0.11601558
0003a0 3c a3 34 3e 27 c3 67 bd c5 59 37 3e d6 2c 41 be
       0.17640394 -0.056582596 0.17905338 -0.1886476
0003b0 b6 66 1d 3e 0e 81 20 3f 3b 27 5e be 12 18 96 3e
       0.15371212 0.6269692 -0.21694653 0.2931524
0003c0 bd 8f b3 3e e3 96 82 3d 39 57 6d 3d aa e7 24 be
       0.350706 0.063764356 0.05794451 -0.16103998
0003d0 0b a6 4e bd dd d4 64 3d 2e 71 05 bd 28 ca 3f be
       -0.05045132 0.055867065 -0.03257864 -0.1872946
0003e0 07 60 f7 bd 7f 4e 5f be b5 5d 4f be 8f d0 40 3d
       -0.12078863 -0.21807288 -0.2025059 0.047073897
0003f0 18 4b a5 bd 82 2e 4e be 7b 9b f5 bd d9 76 13 bd
       -0.080709636 -0.20134929 -0.11992546 -0.036002014

linear2.weight f4 [3, 256]
000000 61 00 1d bd bf a9 a4 3e e0 e4 25 3d 1d ac 12 be
       -0.03833044 0.32160756 0.040501475 -0.14323469
000010 a2 19 b2 3e 0a 90 90 be 3e f4 88 be 5f 86 e8 be
       0.3478518 -0.28234893 -0.26748842 -0.45415017
000020 d1 f2 a1 bc 56 4f 90 3e e2 5f 78 3e 54 4d 1a 3e
       -0.019769104 0.2818553 0.24255326 0.15068561
000030 48 62 f7 3d 39 c9 37 3e ae a4 16 bd d3 4c d9 be
       0.120792925 0.17947854 -0.036778145 -0.42441425
000040 74 d7 3a 3d 75 00 9d be 80 73 35 be aa 68 97 be
       0.04561563 -0.3066441 -0.17719841 -0.2957204
000050 f1 8a b1 be cd 93 3e 3e 39 89 04 be 14 2c 84 3e
       -0.34676316 0.18611069 -0.12942971 0.2581488
000060 68 77 78 be 93 c1 a9 be c3 61 0c bf 6e 4d 34 3d
       -0.242643 -0.33155498 -0.5483667 0.044019155
000070 0f 8c c7 be 6c 1c 18 3e a7 70 71 be 00 d0 b9 bd
       -0.38974044 0.14854592 -0.2357813 -0.09072876
000080 84 7c 11 3e d2 65 de 3c 52 b2 ed be 67 9d 67 be
       0.14207655 0.027148161 -0.4642511 -0.22618638
000090 aa e0 a7 3e ca 18 35 3d e8 74 ce bd bb f1 82 be
       0.32788593 0.044213094 -0.10080892 -0.2557505
0000a0 e5 4e 1d 3d 19 82 03 be f4 ad f7 be b6 40 c1 3e
       0.038405318 -0.12842597 -0.48374903 0.37744683
0000b0 e1 51 9c 3e 4a d9 1c 3e 9b c5 96 3e 46 80 1f bf
       0.3053122 0.15317264 0.29447636 -0.62305105
0000c0 ad 3b 74 3c 68 56 6b bb d4 fa 14 3d ec 7b 07 3e
       0.014906806 -0.0035909656 0.03637202 0.13230866
0000d0 9e 49 55 3b fd d6 85 be 64 d5 0f 3d e9 df 09 be
       0.00325451 -0.26140586 0.035115615 -0.13464321
0000e0 3c 52 76 3d c3 61 9b 3d 03 72 59 be 95 85 d3 3d
       0.06013702 0.07587006 -0.21234898 0.10328213
0000f0 0e 06 b3 3e f8 9b 7c be 78 17 7b be 7c 49 83 3d
       0.34965557 -0.24668872 -0.24520671 0.064105004
000100 a4 69 ad 3c b7 2a 5c bd ce 0f 1a 3e e9 5f 97 3e
       0.021168537 -0.053751674 0.15045092 0.2956536
000110 41 81 7e 3e 25 b0 e2 3d 18 af 01 bf 99 27 fb bc
       0.24853994 0.11068753 -0.50657797 -0.03065853
000120 6c 5a 49 be bd 7e 07 bf 9d a2 7e be 97 a7 c3 be
       -0.196634 -0.5292776 -0.2486672 -0.38213798
000130 64 34 8f be 7a da 8d be ce ee bd 3e 40 0b 4d 3e
       -0.27969658 -0.27705747 0.37096256 0.20023823
000140 60 38 2b 3d 0e 1e be 3a 34 ba 47 be cd 15 17 bf
       0.04180181 0.0014504807 -0.19504625 -0.5901764
000150 39 98 12 3e 5f 13 c7 3e c9 bc 52 be 01 88 7f be
       0.14315881 0.38881966 -0.20579828 -0.24954225
000160 00 bd 4f 3e f1 11 64 3e a9 2e 3a be c5 b4 b5 be
       0.20286942 0.22272469 -0.18181862 -0.3548948
000170 40 88 2c 3e cf 31 bc bd b7 65 5d be f7 a9 69 be
       0.1684885 -0.09189188 -0.21620832 -0.22818743
000180 67 cd d4 bd 85 7a 23 bd fb 0b 0c bf 50 32 52 be
       -0.1039074 -0.039911766 -0.5470578 -0.20527005
000190 be 3c b6 bc aa 44 b8 bc ce 63 b0 3e 7f e3 5f bb
       -0.022245761 -0.02249368 0.34451145 -0.0034162698
0001a0 31 f8 c1 be a0 72 32 be b4 19 c1 bd c0 22 2f bd
       -0.37884668 -0.17426538 -0.094287306 -0.04275775
0001b0 b0 1f c1 bb bd b4 f4 be a4 69 7a 3c 86 d9 9a 3e
       -0.00589367 -0.47794142 0.015283976 0.30244082
0001c0 b2 e6 50 be c9 ba fb be 8a 82 d4 3d 88 4c c2 3e
       -0.20400503 -0.49165943 0.10376461 0.37949014
0001d0 5b 5f 61 be c6 ab 34 be cd eb f6 be 8e e4 b7 3e
       -0.22009031 -0.17643651 -0.48226777 0.3591656
0001e0 c3 d5 8e 3e 43 6b 66 3e be 5e fe bd 36 9b da bd
       0.27897462 0.22501855 -0.124204144 -0.106741354
0001f0 e3 74 48 bd 5e a8 51 3e 92 2f c8 be 4c c9 e3 bc
       -0.048939597 0.20474383 -0.39098793 -0.027805947
000200 81 60 b1 be c9 fa b4 be 7e 80 a2 be 7b 12 7f be
       -0.3464394 -0.35347584 -0.31738657 -0.24909393
000210 ee 95 64 bd 68 82 a3 3e 5f 63 5c 3e 08 52 3f be
       -0.055807047 0.3193543 0.21522282 -0.18683636
000220 49 9b 22 be 8c 63 14 3f 52 93 96 be cc ad 95 3e
       -0.15879549 0.57964396 -0.2940927 0.2923416
000230 37 fa a5 3e 70 f5 37 bd 41 fb 61 be 11 97 55 be
       0.3241746 -0.0449118 -0.22068502 -0.20858409
000240 c1 6e 43 3b 00 73 4f be c4 5b 87 bd 6e 68 d3 3e
       0.0029820653 -0.20258713 -0.066093 0.4129061
000250 48 52 01 bf 88 f3 b0 3e d1 9c 85 be f7 11 39 be
       -0.50516176 0.345608 -0.26096204 -0.1807326
000260 de 59 b3 3b 84 c9 4d be b9 e0 f1 bd 11 ab 7c be
       0.0054733595 -0.20096403 -0.118104406 -0.24674632
000270 c1 08 03 bd 9d 62 9f be 66 78 79 3e 6f 87 f3 bd
       -0.03199077 -0.31129923 0.24362335 -0.11891066
000280 c3 4c 53 3e 65 21 33 be 2b 85 29 bc 8d 72 01 3f
       0.20634751 -0.17493208 -0.010346691 0.50565416
000290 a4 ee 01 3f 22 28 17 3d 6d 4b 8d 3d bf 3e 82 be
       0.5075476 0.036903508 0.06899152 -0.25438496
0002a0 64 1b 6e be e8 03 a5 3e 10 bb 6e 3e 93 79 11 3e
       -0.23252636 0.32229543 0.23313546 0.14206533
0002b0 df 97 99 be e4 a2 fa bd de 95 b6 bd 90 8f f9 be
       -0.2999868 -0.122381 -0.08915304 -0.48742342
0002c0 0d 59 68 3d c2 a4 56 be dd 08 99 be 09 aa 5a be
       0.05672555 -0.20961288 -0.29889575 -0.21353926
0002d0 30 6c 24 3e 87 78 0d be 4a 06 f8 3e 4b 32 bc 3e
       0.16056895 -0.13815509 0.48442298 0.3675712
0002e0 72 c4 33 be 27 d3 08 bf 74 bd cc 3b 6a d5 5c be
       -0.17555407 -0.5344719 0.0062481705 -0.21565786
0002f0 fe 12 f2 bd 06 d2 af 3d 69 b1 2f be f4 f8 8a 3e
       -0.11820029 0.08584981 -0.1715752 0.2714306
000300 bb a8 4e be 88 32 99 be 5f f8 98 3e 50 77 0c be
       -0.20181553 -0.29921365 0.29876992 -0.13717389
000310 03 27 f9 bd a2 0c 83 bd f4 4b 07 be 3f db 71 3e
       -0.12165644 -0.06398894 -0.13212568 0.23618792
000320 06 c5 c3 bd 44 46 d0 be 11 f1 26 bd d3 5c a1 3e
       -0.095590636 -0.40678608 -0.040757243 0.31516132
000330 5e 19 64 bd a4 08 8c 3e f8 4b 99 3e ae 9e e7 3e
       -0.055688255 0.27350342 0.29940772 0.4523825
000340 06 6a d8 3b a5 2b 2c bf e5 98 3d be 0d 2c 71 3c
       0.006604436 -0.67254096 -0.18515356 0.014719975
000350 3b d8 62 bd 9a 0e e1 be ca 38 d5 3e ff b7 f7 bc
       -0.055381995 -0.43956453 0.4164489 -0.030239103
000360 9c 86 d8 3e 78 fb 36 bc 94 df 22 be 50 5d c8 3e
       0.422902 -0.011168353 -0.15905601 0.39133692
000370 2e b0 34 bd 69 86 38 bd d4 22 87 3e 37 66 06 3e
       -0.04411333 -0.04505006 0.2639376 0.1312493
000380 47 b7 ae be 7e de 97 bc 6e b1 28 3b ae 94 ad bd
       -0.34124205 -0.01853871 0.0025740522 -0.08475624
000390 74 58 b5 be 6d 1b ed 3b 0e ef c0 be 44 db 8e bc
       -0.35419047 0.0072359354 -0.37682384 -0.017438538
0003a0 2b fe 45 3e 80 d0 85 be ec 9f 4c 3e fa 71 14 be
       0.19335239 -0.26135635 0.1998288 -0.14496604
0003b0 0c 65 13 3d c7 cd b4 3e 8b 2f 6e be c3 35 00 3f
       0.035985038 0.35313246 -0.23260324 0.50082034
0003c0 b2 11 0e 3f 45 ed d4 3e cb 12 35 be 1e d0 9a be
       0.5549575 0.41587272 -0.1768295 -0.30236906
0003d0 b6 fc 23 bb b3 5b 08 bf 96 dc 6f bd cd 77 ea 3e
       -0.0025022454 -0.5326492 -0.058559977 0.45794526
0003e0 8b fd ed bd d4 2a 17 be 62 dc 3b be 7b 85 b8 be
       -0.11620625 -0.14762431 -0.18345788 -0.36039338
0003f0 2e 89 9e 3e bb 8a 5e be 23 91 b5 be cb 6b 19 be
       0.30964035 -0.21732609 -0.35462293 -0.14982526

linear2.bias f4 [3]
000000 8a db 2f 3e a2 94 ad bd 80 72 84 bd
       0.17173591 -0.08475615 -0.06467152
